:EEG Classification model
    _________________________________________________________________
    Layer (type)                 Output Shape              Param #
    =================================================================
    batch_normalization_1 (Batch (None, 14, 32, 1)         4
    _________________________________________________________________
    conv2d_1 (Conv2D)            (None, 14, 29, 32)        160
    _________________________________________________________________
    conv2d_2 (Conv2D)            (None, 1, 29, 25)         11225
    _________________________________________________________________
    max_pooling2d_1 (MaxPooling2 (None, 1, 9, 25)          0
    _________________________________________________________________
    conv2d_3 (Conv2D)            (None, 50, 6, 1)          5050
    _________________________________________________________________
    max_pooling2d_2 (MaxPooling2 (None, 50, 2, 1)          0
    _________________________________________________________________
    conv2d_4 (Conv2D)            (None, 1, 1, 100)         10100
    _________________________________________________________________
    flatten_1 (Flatten)          (None, 100)               0
    _________________________________________________________________
    batch_normalization_2 (Batch (None, 100)               400
    _________________________________________________________________
    dense_1 (Dense)              (None, 100)               10100
    _________________________________________________________________
    batch_normalization_3 (Batch (None, 100)               400
    _________________________________________________________________
    dense_2 (Dense)              (None, 10)                1010
    =================================================================
    Total params: 38,449
    Trainable params: 38,047
    Non-trainable params: 402
    _________________________________________________________________
    None
