:EEG Classification model
    _________________________________________________________________
    Layer (type)                 Output Shape              Param #
    =================================================================
    batch_normalization_1 (Batch (None, 14, 32, 1)         4
    _________________________________________________________________
    conv2d_1 (Conv2D)            (None, 14, 29, 32)        160
    _________________________________________________________________
    conv2d_2 (Conv2D)            (None, 1, 29, 25)         11225
    _________________________________________________________________
    max_pooling2d_1 (MaxPooling2 (None, 1, 9, 25)          0
    _________________________________________________________________
    conv2d_3 (Conv2D)            (None, 50, 6, 1)          5050
    _________________________________________________________________
    max_pooling2d_2 (MaxPooling2 (None, 50, 2, 1)          0
    _________________________________________________________________
    conv2d_4 (Conv2D)            (None, 1, 1, 100)         10100
    _________________________________________________________________
    flatten_1 (Flatten)          (None, 100)               0
    _________________________________________________________________
    batch_normalization_2 (Batch (None, 100)               400
    _________________________________________________________________
    dense_1 (Dense)              (None, 100)               10100
    _________________________________________________________________
    batch_normalization_3 (Batch (None, 100)               400
    _________________________________________________________________
    dense_2 (Dense)              (None, 10)                1010
    =================================================================
    Total params: 38,449
    Trainable params: 38,047
    Non-trainable params: 402
    _________________________________________________________________
    None

:Discriminator RGB
    Model: "model_1"
    __________________________________________________________________________________________________
    Layer (type)                    Output Shape         Param #     Connected to
    ==================================================================================================
    input_1 (InputLayer)            (None, 64, 64, 3)    0
    __________________________________________________________________________________________________
    conv2d_1 (Conv2D)               (None, 31, 31, 16)   448         input_1[0][0]
    __________________________________________________________________________________________________
    leaky_re_lu_1 (LeakyReLU)       (None, 31, 31, 16)   0           conv2d_1[0][0]
    __________________________________________________________________________________________________
    dropout_1 (Dropout)             (None, 31, 31, 16)   0           leaky_re_lu_1[0][0]
    __________________________________________________________________________________________________
    batch_normalization_1 (BatchNor (None, 31, 31, 16)   64          dropout_1[0][0]
    __________________________________________________________________________________________________
    conv2d_2 (Conv2D)               (None, 29, 29, 32)   4640        batch_normalization_1[0][0]
    __________________________________________________________________________________________________
    leaky_re_lu_2 (LeakyReLU)       (None, 29, 29, 32)   0           conv2d_2[0][0]
    __________________________________________________________________________________________________
    dropout_2 (Dropout)             (None, 29, 29, 32)   0           leaky_re_lu_2[0][0]
    __________________________________________________________________________________________________
    batch_normalization_2 (BatchNor (None, 29, 29, 32)   128         dropout_2[0][0]
    __________________________________________________________________________________________________
    conv2d_3 (Conv2D)               (None, 14, 14, 64)   18496       batch_normalization_2[0][0]
    __________________________________________________________________________________________________
    leaky_re_lu_3 (LeakyReLU)       (None, 14, 14, 64)   0           conv2d_3[0][0]
    __________________________________________________________________________________________________
    dropout_3 (Dropout)             (None, 14, 14, 64)   0           leaky_re_lu_3[0][0]
    __________________________________________________________________________________________________
    batch_normalization_3 (BatchNor (None, 14, 14, 64)   256         dropout_3[0][0]
    __________________________________________________________________________________________________
    conv2d_4 (Conv2D)               (None, 12, 12, 128)  73856       batch_normalization_3[0][0]
    __________________________________________________________________________________________________
    leaky_re_lu_4 (LeakyReLU)       (None, 12, 12, 128)  0           conv2d_4[0][0]
    __________________________________________________________________________________________________
    dropout_4 (Dropout)             (None, 12, 12, 128)  0           leaky_re_lu_4[0][0]
    __________________________________________________________________________________________________
    batch_normalization_4 (BatchNor (None, 12, 12, 128)  512         dropout_4[0][0]
    __________________________________________________________________________________________________
    conv2d_5 (Conv2D)               (None, 5, 5, 256)    295168      batch_normalization_4[0][0]
    __________________________________________________________________________________________________
    leaky_re_lu_5 (LeakyReLU)       (None, 5, 5, 256)    0           conv2d_5[0][0]
    __________________________________________________________________________________________________
    dropout_5 (Dropout)             (None, 5, 5, 256)    0           leaky_re_lu_5[0][0]
    __________________________________________________________________________________________________
    batch_normalization_5 (BatchNor (None, 5, 5, 256)    1024        dropout_5[0][0]
    __________________________________________________________________________________________________
    conv2d_6 (Conv2D)               (None, 3, 3, 512)    1180160     batch_normalization_5[0][0]
    __________________________________________________________________________________________________
    leaky_re_lu_6 (LeakyReLU)       (None, 3, 3, 512)    0           conv2d_6[0][0]
    __________________________________________________________________________________________________
    dropout_6 (Dropout)             (None, 3, 3, 512)    0           leaky_re_lu_6[0][0]
    __________________________________________________________________________________________________
    flatten_1 (Flatten)             (None, 4608)         0           dropout_6[0][0]
    __________________________________________________________________________________________________
    dense_1 (Dense)                 (None, 1)            4609        flatten_1[0][0]
    __________________________________________________________________________________________________
    sequential_1 (Sequential)       (None, 10)           1862570     input_1[0][0]
    ==================================================================================================
    Total params: 3,441,931
    Trainable params: 1,578,369
    Non-trainable params: 1,863,562
    __________________________________________________________________________________________________
    None

:Generator RGB
    Model: "model_2"
    __________________________________________________________________________________________________
    Layer (type)                    Output Shape         Param #     Connected to
    ==================================================================================================
    input_2 (InputLayer)            (None, 100)          0
    __________________________________________________________________________________________________
    mo_g_layer_1 (MoGLayer)         (None, 100)          200         input_2[0][0]
    __________________________________________________________________________________________________
    dense_2 (Dense)                 (None, 100)          10100       mo_g_layer_1[0][0]
    __________________________________________________________________________________________________
    input_3 (InputLayer)            (None, 100)          0
    __________________________________________________________________________________________________
    multiply_1 (Multiply)           (None, 100)          0           dense_2[0][0]
                                                                     input_3[0][0]
    __________________________________________________________________________________________________
    batch_normalization_6 (BatchNor (None, 100)          400         multiply_1[0][0]
    __________________________________________________________________________________________________
    dense_3 (Dense)                 (None, 8192)         827392      batch_normalization_6[0][0]
    __________________________________________________________________________________________________
    reshape_1 (Reshape)             (None, 4, 4, 512)    0           dense_3[0][0]
    __________________________________________________________________________________________________
    batch_normalization_7 (BatchNor (None, 4, 4, 512)    2048        reshape_1[0][0]
    __________________________________________________________________________________________________
    conv2d_transpose_1 (Conv2DTrans (None, 8, 8, 256)    3277056     batch_normalization_7[0][0]
    __________________________________________________________________________________________________
    batch_normalization_8 (BatchNor (None, 8, 8, 256)    1024        conv2d_transpose_1[0][0]
    __________________________________________________________________________________________________
    conv2d_transpose_2 (Conv2DTrans (None, 16, 16, 128)  819328      batch_normalization_8[0][0]
    __________________________________________________________________________________________________
    batch_normalization_9 (BatchNor (None, 16, 16, 128)  512         conv2d_transpose_2[0][0]
    __________________________________________________________________________________________________
    conv2d_transpose_3 (Conv2DTrans (None, 32, 32, 64)   204864      batch_normalization_9[0][0]
    __________________________________________________________________________________________________
    batch_normalization_10 (BatchNo (None, 32, 32, 64)   256         conv2d_transpose_3[0][0]
    __________________________________________________________________________________________________
    conv2d_transpose_4 (Conv2DTrans (None, 64, 64, 3)    4803        batch_normalization_10[0][0]
    __________________________________________________________________________________________________
    activation_1 (Activation)       (None, 64, 64, 3)    0           conv2d_transpose_4[0][0]
    ==================================================================================================
    Total params: 5,147,983
    Trainable params: 5,145,863
    Non-trainable params: 2,120
    __________________________________________________________________________________________________
    None

(Hin −1)×stride[0]−2×padding[0]+dilation[0]×(kernel_size[0]−1)+output_padding[0]+1
…
